…
2023-09-08 12:41:09.758429: I tensorflow/core/platform/cpu_feature_guard.cc:182] This TensorFlow binary is optimized to use available CPU instructions in performance-critical operations.
To enable the following instructions: SSE SSE2 SSE3 SSE4.1 SSE4.2 AVX AVX2 FMA, in other operations, rebuild TensorFlow with the appropriate compiler flags.
WARNING:absl:`lr` is deprecated in Keras optimizer, please use `learning_rate` or use the legacy optimizer, e.g.,tf.keras.optimizers.legacy.SGD.
Model: "sequential"
_________________________________________________________________
 Layer (type)                Output Shape              Param #   
=================================================================
 conv1d (Conv1D)             (None, 259, 256)          2304      
                                                                 
 activation (Activation)     (None, 259, 256)          0         
                                                                 
 conv1d_1 (Conv1D)           (None, 259, 256)          524544    
                                                                 
 batch_normalization (Batch  (None, 259, 256)          1024      
 Normalization)                                                  
                                                                 
 activation_1 (Activation)   (None, 259, 256)          0         
                                                                 
 dropout (Dropout)           (None, 259, 256)          0         
                                                                 
 max_pooling1d (MaxPooling1  (None, 32, 256)           0         
 D)                                                              
                                                                 
 conv1d_2 (Conv1D)           (None, 32, 128)           262272    
                                                                 
 activation_2 (Activation)   (None, 32, 128)           0         
                                                                 
 conv1d_3 (Conv1D)           (None, 32, 128)           131200    
                                                                 
 activation_3 (Activation)   (None, 32, 128)           0         
                                                                 
 conv1d_4 (Conv1D)           (None, 32, 128)           131200    
                                                                 
 activation_4 (Activation)   (None, 32, 128)           0         
                                                                 
 conv1d_5 (Conv1D)           (None, 32, 128)           131200    
                                                                 
 batch_normalization_1 (Bat  (None, 32, 128)           512       
 chNormalization)                                                
                                                                 
 activation_5 (Activation)   (None, 32, 128)           0         
                                                                 
 dropout_1 (Dropout)         (None, 32, 128)           0         
                                                                 
 max_pooling1d_1 (MaxPoolin  (None, 4, 128)            0         
 g1D)                                                            
                                                                 
 conv1d_6 (Conv1D)           (None, 4, 64)             65600     
                                                                 
 activation_6 (Activation)   (None, 4, 64)             0         
                                                                 
 conv1d_7 (Conv1D)           (None, 4, 64)             32832     
                                                                 
 activation_7 (Activation)   (None, 4, 64)             0         
                                                                 
 flatten (Flatten)           (None, 256)               0         
                                                                 
 dense (Dense)               (None, 6)                 1542      
                                                                 
 activation_8 (Activation)   (None, 6)                 0         
                                                                 
=================================================================
Total params: 1284230 (4.90 MB)
Trainable params: 1283462 (4.90 MB)
Non-trainable params: 768 (3.00 KB)
_________________________________________________________________
Epoch 1/100
570/571 [============================>.] - ETA: 0s - loss: 1.3516 - accuracy: 0.4288
…
